…
/users/PAS1383/osu10171/.conda/envs/local/lib/python2.7/site-packages/sklearn/cross_validation.py:41: DeprecationWarning: This module was deprecated in version 0.18 in favor of the model_selection module into which all the refactored classes and functions are moved. Also note that the interface of the new CV iterators are different from that of this module. This module will be removed in 0.20.
  "This module will be removed in 0.20.", DeprecationWarning)
(3800, 85, 85, 3) (3800,)
____________________________________________________________________________________________________
Layer (type)                     Output Shape          Param #     Connected to                     
====================================================================================================
input_1 (InputLayer)             (None, 85, 85, 3)     0                                            
____________________________________________________________________________________________________
conv2d_1 (Conv2D)                (None, 83, 83, 16)    448         input_1[0][0]                    
____________________________________________________________________________________________________
batch_normalization_1 (BatchNorm (None, 83, 83, 16)    64          conv2d_1[0][0]                   
____________________________________________________________________________________________________
leaky_re_lu_1 (LeakyReLU)        (None, 83, 83, 16)    0           batch_normalization_1[0][0]      
____________________________________________________________________________________________________
conv2d_2 (Conv2D)                (None, 82, 82, 16)    1040        leaky_re_lu_1[0][0]              
____________________________________________________________________________________________________
batch_normalization_2 (BatchNorm (None, 82, 82, 16)    64          conv2d_2[0][0]                   
____________________________________________________________________________________________________
leaky_re_lu_2 (LeakyReLU)        (None, 82, 82, 16)    0           batch_normalization_2[0][0]      
____________________________________________________________________________________________________
max_pooling2d_1 (MaxPooling2D)   (None, 41, 41, 16)    0           leaky_re_lu_2[0][0]              
____________________________________________________________________________________________________
dropout_1 (Dropout)              (None, 41, 41, 16)    0           max_pooling2d_1[0][0]            
____________________________________________________________________________________________________
conv2d_3 (Conv2D)                (None, 39, 39, 32)    4640        dropout_1[0][0]                  
____________________________________________________________________________________________________
batch_normalization_3 (BatchNorm (None, 39, 39, 32)    128         conv2d_3[0][0]                   
____________________________________________________________________________________________________
leaky_re_lu_3 (LeakyReLU)        (None, 39, 39, 32)    0           batch_normalization_3[0][0]      
____________________________________________________________________________________________________
conv2d_4 (Conv2D)                (None, 38, 38, 32)    4128        leaky_re_lu_3[0][0]              
____________________________________________________________________________________________________
batch_normalization_4 (BatchNorm (None, 38, 38, 32)    128         conv2d_4[0][0]                   
____________________________________________________________________________________________________
leaky_re_lu_4 (LeakyReLU)        (None, 38, 38, 32)    0           batch_normalization_4[0][0]      
____________________________________________________________________________________________________
max_pooling2d_2 (MaxPooling2D)   (None, 19, 19, 32)    0           leaky_re_lu_4[0][0]              
____________________________________________________________________________________________________
dropout_2 (Dropout)              (None, 19, 19, 32)    0           max_pooling2d_2[0][0]            
____________________________________________________________________________________________________
conv2d_5 (Conv2D)                (None, 17, 17, 64)    18496       dropout_2[0][0]                  
____________________________________________________________________________________________________
batch_normalization_5 (BatchNorm (None, 17, 17, 64)    256         conv2d_5[0][0]                   
____________________________________________________________________________________________________
leaky_re_lu_5 (LeakyReLU)        (None, 17, 17, 64)    0           batch_normalization_5[0][0]      
____________________________________________________________________________________________________
conv2d_6 (Conv2D)                (None, 16, 16, 64)    16448       leaky_re_lu_5[0][0]              
____________________________________________________________________________________________________
batch_normalization_6 (BatchNorm (None, 16, 16, 64)    256         conv2d_6[0][0]                   
____________________________________________________________________________________________________
leaky_re_lu_6 (LeakyReLU)        (None, 16, 16, 64)    0           batch_normalization_6[0][0]      
____________________________________________________________________________________________________
max_pooling2d_3 (MaxPooling2D)   (None, 8, 8, 64)      0           leaky_re_lu_6[0][0]              
____________________________________________________________________________________________________
dropout_3 (Dropout)              (None, 8, 8, 64)      0           max_pooling2d_3[0][0]            
____________________________________________________________________________________________________
flatten_1 (Flatten)              (None, 4096)          0           dropout_3[0][0]                  
____________________________________________________________________________________________________
batch_normalization_7 (BatchNorm (None, 4096)          16384       flatten_1[0][0]                  
____________________________________________________________________________________________________
input_2 (InputLayer)             (None, 102)           0                                            
____________________________________________________________________________________________________
concatenate_1 (Concatenate)      (None, 4198)          0           batch_normalization_7[0][0]      
                                                                   input_2[0][0]                    
____________________________________________________________________________________________________
dense_1 (Dense)                  (None, 128)           537472      concatenate_1[0][0]              
____________________________________________________________________________________________________
leaky_re_lu_7 (LeakyReLU)        (None, 128)           0           dense_1[0][0]                    
____________________________________________________________________________________________________
dense_2 (Dense)                  (None, 64)            8256        leaky_re_lu_7[0][0]              
____________________________________________________________________________________________________
dropout_4 (Dropout)              (None, 64)            0           dense_2[0][0]                    
____________________________________________________________________________________________________
dense_3 (Dense)                  (None, 32)            2080        dropout_4[0][0]                  
____________________________________________________________________________________________________
dropout_5 (Dropout)              (None, 32)            0           dense_3[0][0]                    
____________________________________________________________________________________________________
dense_4 (Dense)                  (None, 12)            396         dropout_5[0][0]                  
====================================================================================================
Total params: 610,684
Trainable params: 602,044
Non-trainable params: 8,640
____________________________________________________________________________________________________
No saved trial for kfold.
Train on 3800 samples, validate on 950 samples
Epoch 1/500
…
