…
/users/PAS1383/osu10171/.conda/envs/local/lib/python2.7/site-packages/sklearn/cross_validation.py:41: DeprecationWarning: This module was deprecated in version 0.18 in favor of the model_selection module into which all the refactored classes and functions are moved. Also note that the interface of the new CV iterators are different from that of this module. This module will be removed in 0.20.
  "This module will be removed in 0.20.", DeprecationWarning)
_________________________________________________________________
Layer (type)                 Output Shape              Param #   
=================================================================
input_1 (InputLayer)         (None, 65, 65, 3)         0         
_________________________________________________________________
conv2d_1 (Conv2D)            (None, 63, 63, 16)        448       
_________________________________________________________________
batch_normalization_1 (Batch (None, 63, 63, 16)        64        
_________________________________________________________________
conv2d_2 (Conv2D)            (None, 62, 62, 16)        1040      
_________________________________________________________________
max_pooling2d_1 (MaxPooling2 (None, 31, 31, 16)        0         
_________________________________________________________________
batch_normalization_2 (Batch (None, 31, 31, 16)        64        
_________________________________________________________________
dropout_1 (Dropout)          (None, 31, 31, 16)        0         
_________________________________________________________________
conv2d_3 (Conv2D)            (None, 29, 29, 16)        2320      
_________________________________________________________________
batch_normalization_3 (Batch (None, 29, 29, 16)        64        
_________________________________________________________________
conv2d_4 (Conv2D)            (None, 28, 28, 16)        1040      
_________________________________________________________________
max_pooling2d_2 (MaxPooling2 (None, 14, 14, 16)        0         
_________________________________________________________________
batch_normalization_4 (Batch (None, 14, 14, 16)        64        
_________________________________________________________________
dropout_2 (Dropout)          (None, 14, 14, 16)        0         
_________________________________________________________________
conv2d_5 (Conv2D)            (None, 12, 12, 32)        4640      
_________________________________________________________________
batch_normalization_5 (Batch (None, 12, 12, 32)        128       
_________________________________________________________________
conv2d_6 (Conv2D)            (None, 11, 11, 32)        4128      
_________________________________________________________________
max_pooling2d_3 (MaxPooling2 (None, 5, 5, 32)          0         
_________________________________________________________________
batch_normalization_6 (Batch (None, 5, 5, 32)          128       
_________________________________________________________________
dropout_3 (Dropout)          (None, 5, 5, 32)          0         
_________________________________________________________________
conv2d_7 (Conv2D)            (None, 3, 3, 32)          9248      
_________________________________________________________________
batch_normalization_7 (Batch (None, 3, 3, 32)          128       
_________________________________________________________________
conv2d_8 (Conv2D)            (None, 2, 2, 32)          4128      
_________________________________________________________________
max_pooling2d_4 (MaxPooling2 (None, 1, 1, 32)          0         
_________________________________________________________________
batch_normalization_8 (Batch (None, 1, 1, 32)          128       
_________________________________________________________________
dropout_4 (Dropout)          (None, 1, 1, 32)          0         
_________________________________________________________________
flatten_1 (Flatten)          (None, 32)                0         
_________________________________________________________________
batch_normalization_9 (Batch (None, 32)                128       
_________________________________________________________________
dense_1 (Dense)              (None, 64)                2112      
_________________________________________________________________
dropout_5 (Dropout)          (None, 64)                0         
_________________________________________________________________
dense_2 (Dense)              (None, 32)                2080      
_________________________________________________________________
dropout_6 (Dropout)          (None, 32)                0         
_________________________________________________________________
dense_3 (Dense)              (None, 12)                396       
=================================================================
Total params: 32,476
Trainable params: 32,028
Non-trainable params: 448
_________________________________________________________________
No saved trial for kfold.
Train on 3800 samples, validate on 950 samples
Epoch 1/500
2018-08-10 13:44:51.312663: W tensorflow/core/platform/cpu_feature_guard.cc:45] The TensorFlow library wasn't compiled to use SSE4.1 instructions, but these are available on your machine and could speed up CPU computations.
…
