…
/users/PAS1383/osu10171/.conda/envs/local/lib/python2.7/site-packages/sklearn/cross_validation.py:41: DeprecationWarning: This module was deprecated in version 0.18 in favor of the model_selection module into which all the refactored classes and functions are moved. Also note that the interface of the new CV iterators are different from that of this module. This module will be removed in 0.20.
  "This module will be removed in 0.20.", DeprecationWarning)
_________________________________________________________________
Layer (type)                 Output Shape              Param #   
=================================================================
input_1 (InputLayer)         (None, 100, 100, 3)       0         
_________________________________________________________________
conv2d_1 (Conv2D)            (None, 98, 98, 16)        448       
_________________________________________________________________
max_pooling2d_1 (MaxPooling2 (None, 49, 49, 16)        0         
_________________________________________________________________
dropout_1 (Dropout)          (None, 49, 49, 16)        0         
_________________________________________________________________
conv2d_2 (Conv2D)            (None, 47, 47, 16)        2320      
_________________________________________________________________
max_pooling2d_2 (MaxPooling2 (None, 23, 23, 16)        0         
_________________________________________________________________
dropout_2 (Dropout)          (None, 23, 23, 16)        0         
_________________________________________________________________
conv2d_3 (Conv2D)            (None, 21, 21, 32)        4640      
_________________________________________________________________
max_pooling2d_3 (MaxPooling2 (None, 10, 10, 32)        0         
_________________________________________________________________
dropout_3 (Dropout)          (None, 10, 10, 32)        0         
_________________________________________________________________
conv2d_4 (Conv2D)            (None, 8, 8, 32)          9248      
_________________________________________________________________
max_pooling2d_4 (MaxPooling2 (None, 4, 4, 32)          0         
_________________________________________________________________
dropout_4 (Dropout)          (None, 4, 4, 32)          0         
_________________________________________________________________
flatten_1 (Flatten)          (None, 512)               0         
_________________________________________________________________
batch_normalization_1 (Batch (None, 512)               2048      
_________________________________________________________________
dense_1 (Dense)              (None, 64)                32832     
_________________________________________________________________
dropout_5 (Dropout)          (None, 64)                0         
_________________________________________________________________
dense_2 (Dense)              (None, 32)                2080      
_________________________________________________________________
dropout_6 (Dropout)          (None, 32)                0         
_________________________________________________________________
dense_3 (Dense)              (None, 12)                396       
=================================================================
Total params: 54,012
Trainable params: 52,988
Non-trainable params: 1,024
_________________________________________________________________
2018-08-01 13:52:53.021083: W tensorflow/core/platform/cpu_feature_guard.cc:45] The TensorFlow library wasn't compiled to use SSE4.1 instructions, but these are available on your machine and could speed up CPU computations.
…
