…
backend.
/users/PAS1383/osu10171/.conda/envs/local/lib/python2.7/site-packages/h5py/__init__.py:34: FutureWarning: Conversion of the second argument of issubdtype from `float` to `np.floating` is deprecated. In future, it will be treated as `np.float64 == np.dtype(float).type`.
  from ._conv import register_converters as _register_converters
Found data with correct size
_________________________________________________________________
Layer (type)                 Output Shape              Param #   
=================================================================
input_1 (InputLayer)         (None, 100, 100, 3)       0         
_________________________________________________________________
conv2d_1 (Conv2D)            (None, 98, 98, 16)        448       
_________________________________________________________________
conv2d_2 (Conv2D)            (None, 96, 96, 16)        2320      
_________________________________________________________________
max_pooling2d_1 (MaxPooling2 (None, 48, 48, 16)        0         
_________________________________________________________________
dropout_1 (Dropout)          (None, 48, 48, 16)        0         
_________________________________________________________________
conv2d_3 (Conv2D)            (None, 46, 46, 32)        4640      
_________________________________________________________________
conv2d_4 (Conv2D)            (None, 44, 44, 32)        9248      
_________________________________________________________________
max_pooling2d_2 (MaxPooling2 (None, 22, 22, 32)        0         
_________________________________________________________________
dropout_2 (Dropout)          (None, 22, 22, 32)        0         
_________________________________________________________________
conv2d_5 (Conv2D)            (None, 20, 20, 64)        18496     
_________________________________________________________________
conv2d_6 (Conv2D)            (None, 18, 18, 64)        36928     
_________________________________________________________________
max_pooling2d_3 (MaxPooling2 (None, 9, 9, 64)          0         
_________________________________________________________________
dropout_3 (Dropout)          (None, 9, 9, 64)          0         
_________________________________________________________________
conv2d_7 (Conv2D)            (None, 7, 7, 128)         73856     
_________________________________________________________________
max_pooling2d_4 (MaxPooling2 (None, 3, 3, 128)         0         
_________________________________________________________________
dropout_4 (Dropout)          (None, 3, 3, 128)         0         
_________________________________________________________________
flatten_1 (Flatten)          (None, 1152)              0         
_________________________________________________________________
batch_normalization_1 (Batch (None, 1152)              4608      
_________________________________________________________________
dense_1 (Dense)              (None, 256)               295168    
_________________________________________________________________
dropout_5 (Dropout)          (None, 256)               0         
_________________________________________________________________
dense_2 (Dense)              (None, 64)                16448     
_________________________________________________________________
dropout_6 (Dropout)          (None, 64)                0         
_________________________________________________________________
dense_3 (Dense)              (None, 12)                780       
=================================================================
Total params: 462,940
Trainable params: 460,636
Non-trainable params: 2,304
_________________________________________________________________
2018-07-31 17:09:15.664463: W tensorflow/core/platform/cpu_feature_guard.cc:45] The TensorFlow library wasn't compiled to use SSE4.1 instructions, but these are available on your machine and could speed up CPU computations.
…
