…
/users/PAS1383/osu10171/.conda/envs/local/lib/python2.7/site-packages/sklearn/cross_validation.py:41: DeprecationWarning: This module was deprecated in version 0.18 in favor of the model_selection module into which all the refactored classes and functions are moved. Also note that the interface of the new CV iterators are different from that of this module. This module will be removed in 0.20.
  "This module will be removed in 0.20.", DeprecationWarning)
 
No saved model. Generating...
____________________________________________________________________________________________________
Layer (type)                     Output Shape          Param #     Connected to                     
====================================================================================================
input_1 (InputLayer)             (None, 100, 100, 3)   0                                            
____________________________________________________________________________________________________
conv2d_1 (Conv2D)                (None, 98, 98, 16)    448         input_1[0][0]                    
____________________________________________________________________________________________________
max_pooling2d_1 (MaxPooling2D)   (None, 49, 49, 16)    0           conv2d_1[0][0]                   
____________________________________________________________________________________________________
dropout_1 (Dropout)              (None, 49, 49, 16)    0           max_pooling2d_1[0][0]            
____________________________________________________________________________________________________
conv2d_2 (Conv2D)                (None, 47, 47, 16)    2320        dropout_1[0][0]                  
____________________________________________________________________________________________________
max_pooling2d_2 (MaxPooling2D)   (None, 23, 23, 16)    0           conv2d_2[0][0]                   
____________________________________________________________________________________________________
dropout_2 (Dropout)              (None, 23, 23, 16)    0           max_pooling2d_2[0][0]            
____________________________________________________________________________________________________
conv2d_3 (Conv2D)                (None, 21, 21, 32)    4640        dropout_2[0][0]                  
____________________________________________________________________________________________________
max_pooling2d_3 (MaxPooling2D)   (None, 10, 10, 32)    0           conv2d_3[0][0]                   
____________________________________________________________________________________________________
dropout_3 (Dropout)              (None, 10, 10, 32)    0           max_pooling2d_3[0][0]            
____________________________________________________________________________________________________
conv2d_4 (Conv2D)                (None, 8, 8, 32)      9248        dropout_3[0][0]                  
____________________________________________________________________________________________________
max_pooling2d_4 (MaxPooling2D)   (None, 4, 4, 32)      0           conv2d_4[0][0]                   
____________________________________________________________________________________________________
dropout_4 (Dropout)              (None, 4, 4, 32)      0           max_pooling2d_4[0][0]            
____________________________________________________________________________________________________
flatten_1 (Flatten)              (None, 512)           0           dropout_4[0][0]                  
____________________________________________________________________________________________________
batch_normalization_1 (BatchNorm (None, 512)           2048        flatten_1[0][0]                  
____________________________________________________________________________________________________
input_2 (InputLayer)             (None, 102)           0                                            
____________________________________________________________________________________________________
concatenate_1 (Concatenate)      (None, 614)           0           batch_normalization_1[0][0]      
                                                                   input_2[0][0]                    
____________________________________________________________________________________________________
dense_1 (Dense)                  (None, 64)            39360       concatenate_1[0][0]              
____________________________________________________________________________________________________
dropout_5 (Dropout)              (None, 64)            0           dense_1[0][0]                    
____________________________________________________________________________________________________
dense_2 (Dense)                  (None, 32)            2080        dropout_5[0][0]                  
____________________________________________________________________________________________________
dropout_6 (Dropout)              (None, 32)            0           dense_2[0][0]                    
____________________________________________________________________________________________________
dense_3 (Dense)                  (None, 12)            396         dropout_6[0][0]                  
====================================================================================================
Total params: 60,540
Trainable params: 59,516
Non-trainable params: 1,024
____________________________________________________________________________________________________
2018-08-08 15:22:08.257046: W tensorflow/core/platform/cpu_feature_guard.cc:45] The TensorFlow library wasn't compiled to use SSE4.1 instructions, but these are available on your machine and could speed up CPU computations.
…
